aimodel/corn.tflite (tflite, 691616 bytes, 16 tensors)

arith.constant f4 [32, 3, 3, 3]
-0.000104262006 -4.0707917e-05 -4.3374937e-05 0.0005517576 -0.00042248465 -0.00018396552 -0.00021521018 0.00042345922
-0.00037552245 -1.6631933e-05 2.9654015e-05 0.00015734659 0.00018767556 -0.0003877576 0.00027451996 -0.00024160343
0.00052657217 0.00040733843 -0.00028827426 -0.00013559504 -7.306824e-05 -0.00013235676 -0.00016686996 0.00014240653
0.0005091093 -0.0002651797 7.4595334e-07 -0.00018152295 -0.00016636109 -5.0584713e-05 0.0001344599 -0.00010194976
-0.00035337362 -0.00045036065 -0.00025305705 -0.0003730835 -4.3456304e-05 0.00018834612 0.000111175315 0.00020852157
0.00041642817 -0.00042661 -1.8327944e-05 0.00011807719 0.00015080458 3.754081e-06 0.00043508122 -0.0003311924
0.00024811685 0.00045957748 -0.00044424608 -0.00011389441 0.0005678938 -0.00011967677 -2.5968819e-05 0.0001233416
0.00035095096 0.0004872009 3.1889213e-05 0.00028736505 0.00048144523 0.00047794092 -0.00043065858 -2.5310017e-05
-0.00047637548 -0.0003391985 -9.920833e-05 -0.00055289065 -0.00042804537 0.00037160353 0.00019086093 -0.000101459
0.000465197 0.00039809203 7.589528e-05 -1.7956616e-05 -0.00032809505 0.00020688515 -7.532818e-05 0.00019080403
-8.660122e-05 8.1215716e-05 -0.00012131301 -0.00020371214 -0.00026289767 0.00017840326 0.00045702548 -0.0005174535
0.00016340069 0.00046117886 -0.0002388553 0.00029335142 0.00040635036 0.00017426739 0.00046317218 0.00024084124
-7.296454e-05 0.00022266102 -7.443583e-05 6.788705e-05 -1.0282969e-05 -0.00039469817 0.00028932648 -0.00027883225
-1.682164e-05 -9.95869e-06 0.00047768507 -0.00037450856 6.956622e-05 8.239485e-05 0.00052094617 -0.00028036282
-0.0005006538 -0.0002193673 0.0003034059 0.0005210213 0.00024953266 0.00016856576 -0.00027771347 0.0004503841
-0.00043289634 0.00044484367 0.00049817195 0.0002724499 -0.0004837188 -0.00019451565 -3.375867e-05 0.00029547344
2.3167638e-06 -0.00049688003 -0.00040949002 -0.00038634427 -0.00032201942 -0.00041411023 -7.2303665e-05 0.00049372955
-0.00042869244 6.892585e-05 0.00020687272 -5.489798e-05 8.5905594e-05 0.00012686584 -3.985892e-05 -0.00041270247
0.00013286567 -0.00011919984 -0.00046714785 0.00010064425 0.00034981337 -0.00015291816 -0.00020241884 0.0004349657
-6.177474e-05 0.0001724273 -0.00010260951 0.0005339881 9.4885e-05 0.00035917727 -0.00037011076 -0.00024311949
0.0002833837 0.00047632336 0.00046606082 1.1971697e-05 -0.00025247168 0.00015599647 0.00043823195 0.00040184616
-0.00033708327 9.425115e-06 0.00015999081 -0.00049139577 0.00014209711 -0.00023596383 0.00019097357 0.00019701639
0.00037671826 -0.0003120512 -0.00030099112 -0.00034250307 0.0003512131 0.00025705202 0.00033324814 -0.000116708
-0.000428802 -4.271199e-05 0.00033016858 -0.00045093807 -0.00040389382 -0.00044105737 0.00027788934 -0.00034794756
-0.0005195251 -0.00029726495 0.0002888569 0.00020741884 4.2761552e-05 0.00045451344 0.00041362256 -0.0003535261
3.4364504e-05 -0.0004310977 0.0004518458 0.00048673354 -0.0001476266 -0.0005018305 3.3803557e-05 -6.20747e-05
0.0004123437 -0.00029842593 -7.63724e-07 -0.00035077642 -0.00033883695 0.00012247323 0.00016774662 0.0003038377
0.00026724895 -0.00043017845 -0.00042580522 -0.00037212597 -7.333619e-05 0.00025292276 -0.00042083344 0.00039662787
0.00024349538 -0.00013707219 0.00035328415 -0.00012316002 0.000512488 -7.9593565e-06 0.0005186977 7.1447124e-05
-0.000437435 1.058553e-05 0.00016611944 0.00014193264 -0.00032987958 -0.00019127884 0.0002527773 -0.00028144722
3.0115987e-05 -0.00032421277 0.00018484805 5.017239e-05 -0.00022472287 2.2770793e-05 -7.973312e-05 -0.00042223767
-0.00047119005 0.00014694693 0.00031856762 0.00040998895 0.00034609245 -0.00020138259 -0.00030682827 0.00047877763
00000000: 3da7 dab8 cbbd 2ab8 7ced 35b8 d3a3 103a
00000010: ee80 ddb9 dee6 40b9 0baa 61b9 bc03 de39
00000020: c5e1 c4b9 ce84 8bb7 83c1 f837 67fd 2439
00000030: c6ca 4439 f24b cbb9 72ed 8f39 ed56 7db9
00000040: a909 0a3a 0a90 d539 8423 97b9 842e 0eb9
00000050: 363c 99b8 3fc9 0ab9 d0f9 2eb9 f652 1539
00000060: bf75 053a d107 8bb9 863d 4835 3257 3eb9
00000070: 3771 2eb9 ec2a 54b8 cefd 0c39 dccd d5b8
00000080: 0145 b9b9 621e ecb9 beac 84b9 6b9a c3b9
00000090: da44 36b8 c77e 4539 cb26 e938 95a6 5a39
000000a0: 0b54 da39 a0aa dfb9 f6be 99b7 35a0 f738
000000b0: 4c21 1e39 9fee 7b36 9d1b e439 e4a3 adb9
000000c0: ae15 8239 72f3 f039 b3e9 e8b9 99da eeb8
000000d0: b5de 143a fafa fab8 9dd7 d9b7 4255 0139
000000e0: d7ff b739 ff6e ff39 c8c0 0538 7ca9 9639
000000f0: 7c6a fc39 2594 fa39 04ca e1b9 d950 d4b7
00000100: 09c2 f9b9 74d6 b1b9 110e d0b8 ddef 10ba
00000110: 476b e0b9 c8d3 c239 d721 4839 63c6 d4b8
00000120: afe5 f339 02b7 d039 f829 9f38 8aa1 96b7
00000130: 2c04 acb9 4fef 5839 82f9 9db8 9112 4839
00000140: ad9d b5b8 5b52 aa38 6d69 feb8 909b 55b9
00000150: 87d5 89b9 c311 3b39 ec9c ef39 b7a5 07ba
00000160: 8a56 2b39 61ca f139 3b75 7ab9 f6cc 9939
00000170: 6c0b d539 8cbb 3639 ebd5 f239 548a 7c39
00000180: 8a04 99b8 1d7a 6939 6f1a 9cb8 955e 8e38
00000190: 0485 2cb7 7eef ceb9 beb0 9739 3b30 92b9
000001a0: 321c 8db7 3f14 27b7 ce71 fa39 b059 c4b9
000001b0: 14e4 9138 66cb ac38 1b90 083a a9fd 92b9
000001c0: 4f3e 03ba f605 66b9 7312 9f39 2695 083a
000001d0: b5d3 8239 07c1 3039 129a 91b9 8821 ec39
000001e0: 5df6 e2b9 e839 e939 c197 023a 9bd7 8e39
000001f0: a39b fdb9 e6f6 4bb9 1998 0db8 c6e9 9a39
00000200: b379 1b36 0e41 02ba d2b0 d6b9 408e cab9
00000210: b7d4 a8b9 ef1c d9b9 bca1 97b8 a16d 013a
00000220: 20c2 e0b9 498c 9038 f9eb 5839 4242 66b8
00000230: 3728 b438 4a07 0539 312e 27b8 fd5f d8b9
00000240: db51 0b39 edfa f9b8 86eb f4b9 f810 d338
00000250: 2867 b739 a858 20b9 6540 54b9 1c0c e439
00000260: 108d 81b8 9acd 3439 1030 d7b8 56fb 0b3a
00000270: fffc c638 f54f bc39 6d0b c2b9 e4ed 7eb9
00000280: 1e93 9439 0abb f939 a059 f439 0cda 4837
00000290: 2d5e 84b9 fc92 2339 7fc2 e539 e1ae d239
000002a0: 8dba b0b9 9020 1e37 35c3 2739 03d1 00ba
000002b0: e7ff 1439 0f6d 77b9 1440 4839 2f96 4e39
000002c0: 4582 c539 ce9a a3b9 58ce 9db9 fc91 b3b9
000002d0: 0623 b839 f0c4 8639 cfb7 ae39 21c1 f4b8
000002e0: d5d0 e0b9 a625 33b8 7a1a ad39 e26b ecb9
000002f0: b6c1 d3b9 b83d e7b9 adb1 9139 bb6c b6b9
00000300: bd30 08ba 3ada 9bb9 b871 9739 927e 5939
00000310: de5a 3338 c34b ee39 7bdb d839 7859 b9b9
00000320: 9b22 1038 f404 e2b9 b7e5 ec39 4530 ff39
00000330: 37cc 1ab9 468d 03ba 4bc8 0d38 1a2e 82b8
00000340: d62f d839 0d76 9cb9 b702 4db5 6ae8 b7b9
00000350: eda5 b1b9 286c 0039 24e5 2f39 684c 9f39
00000360: 8c1d 8c39 9389 e1b9 9c3e dfb9 e719 c3b9
00000370: 11cc 99b8 b89a 8439 4fa3 dcb9 7ef2 cf39
00000380: cb52 7f39 09bb 0fb9 ff38 b939 8424 01b9
00000390: 7d58 063a 2d89 05b7 37f9 073a e2d5 9538
000003a0: 8857 e5b9 8198 3137 5930 2e39 c1d3 1439
000003b0: b0f3 acb9 0692 48b9 3287 8439 358f 93b9
000003c0: 97a1 fc37 1afb a9b9 c5d3 4139 3270 5238
000003d0: 96a3 6bb9 e803 bf37 6536 a7b8 c85f ddb9
000003e0: 0f0a f7b9 c415 1a39 6c05 a739 c9f3 d639
000003f0: be73 b539 3a2a 53b9 cbdd a0b9 7204 fb39

arith.constant1 f4 [64]
-0.0058172173 0.005285673 0.0055579683 0.0056325444 -0.003969756 0.03041033 -0.01239395 -0.0025129002
-0.0014696177 -0.002964353 0.005193438 -0.0025445423 0.005995349 0.014873412 0.003145933 0.006525363
0.003910258 0.004092441 0.0036421916 -0.007662096 0.0004532422 0.006698772 0.005483788 -0.0028938127
0.005296069 -0.0047229943 -0.0016250389 -6.978269e-05 0.0074532046 0.0152461305 0.0010024623 -0.0053767734
-0.0015785882 0.0026499806 0.0023178246 0.0033013506 0.008045273 0.0010429546 0.015526188 0.0023628578
-0.00027862395 -0.000677301 -0.0047186264 0.0069029364 -0.011058123 -0.006801586 0.007924097 0.0063741114
-0.0017555235 0.00064367405 -0.002790714 -0.010217619 0.0012304939 -0.0026249592 0.006391195 0.010569767
0.009719797 0.0044534393 0.0049183923 0.0014264786 0.001507713 0.006171944 0.006143726 0.0043495717
00000000: 5b9e bebb 7033 ad3b 9e1f b63b 3591 b83b
00000010: ba14 82bb 161f f93c fe0f 4bbc 78af 24bb
00000020: 30a0 c0ba 9745 42bb b72d aa3b 56c2 26bb
00000030: a274 c43b 9daf 733c ff2b 4e3b b6d2 d53b
00000040: 9f21 803b e219 863b d6b1 6e3b 5212 fbbb
00000050: 23a1 ed39 5f81 db3b 59b1 b33b 1fa6 3dbb
00000060: a68a ad3b 59c3 9abb 42ff d4ba 4c58 92b8
00000070: 033a f43b e8ca 793c 0e65 833a a52f b0bb
00000080: a1e8 ceba 4cab 2d3b a5e6 173b 795b 583b
00000090: 52d0 033c c0b3 883a 8d61 7e3c 2dda 1a3b
000000a0: 4614 92b9 e78c 31ba b59e 9abb 0732 e23b
000000b0: 212d 35bc d7df debb 12d4 013c ecdd d03b
000000c0: 9819 e6ba 3cbc 283a 69e4 36bb cd67 27bc
000000d0: 8648 a13a 8207 2cbb 3b6d d13b d12c 2d3c
000000e0: c93f 1f3c 28ee 913b 772a a13b aef8 ba3a
000000f0: 749e c53a 053e ca3b 4f51 c93b da86 8e3b

arith.constant2 f4 [64]
-0.016009435 -0.002304951 0.010206418 0.015340443 0.00035365197 -0.00965534 -0.0052326825 0.0030604866
-0.00019354586 0.003565568 0.0073001753 0.0020482799 -0.00090702646 0.0005724129 -0.0038087904 -0.00020616475
0.0011518683 0.003937291 0.0072723944 -0.0015170339 -0.0010799648 0.009138169 0.0047684577 -0.00821734
-0.0007078728 0.0037426609 0.0034637572 0.008778535 -0.004681664 0.012098702 -0.002104682 0.0020174608
0.00478222 0.011180419 0.012501897 -0.0023549348 0.010488927 0.0033542945 0.00040323433 0.0007159402
-0.0040819747 -0.006252381 0.010943199 -0.004817249 0.0035163648 0.004144764 0.0060014147 0.0015437597
0.001703404 -0.00036781078 0.0018254879 0.003004643 0.0058742934 -0.002005092 0.017623857 0.010118737
0.011530711 -0.0007473074 -0.00018888494 -0.0025398093 0.012101066 -0.001754716 -0.009164856 0.01609255
00000000: 3826 83bc a90e 17bb d238 273c 7b56 7b3c
00000010: 5d6a b939 6e31 1ebc ec76 abbb 7292 483b
00000020: 92f2 4ab9 4eac 693b 4f36 ef3b 6f3c 063b
00000030: 84c5 6dba fb0d 163a e69c 79bb ee2d 58b9
00000040: 49fa 963a 6404 813b 444d ee3b 36d7 c6ba
00000050: 9b8d 8dba 42b8 153c b940 9c3b 06a2 06bc
00000060: 8a90 39ba 6e47 753b 3400 633b d8d3 0f3c
00000070: a568 99bb a239 463c b4ee 09bb 6037 043b
00000080: 2bb4 9c3b 132e 373c c2d4 4c3c 4055 1abb
00000090: c0d9 2b3c b9d3 5b3b 3269 d339 efad 3b3a
000000a0: 16c2 85bb c6e0 ccbb 1a4b 333c 03da 9dbb
000000b0: d072 663b cdd0 873b 84a7 c43b fb57 ca3a
000000c0: c144 df3a bad6 c0b9 3645 ef3a 8be9 443b
000000d0: 257d c03b dd67 03bb e85f 903c 0fc9 253c
000000e0: 4feb 3c3c f3e6 43ba 6a0f 46b9 ee72 26bb
000000f0: 8d43 463c 80fe e5ba 3128 16bc 86d4 833c

arith.constant3 f4 [64]
0.015695946 0.012073583 -0.0049005006 0.0030647551 -0.0032781798 0.012142903 -0.008899449 0.018962106
0.015301042 0.0005859286 -0.004958156 -0.0032473044 0.010819983 -0.0106288325 0.0026837653 0.01750902
0.006002677 -0.0021730745 0.015526163 0.007074707 0.008004774 -0.0072396775 0.011895621 -0.0101321945
-0.006121704 -0.008105221 -0.0085097235 0.020092014 0.01537885 0.01049303 0.0053731906 -0.0035267842
0.006776481 -0.0072161253 -0.003927078 0.008317735 0.013525677 -0.0024028027 -0.007349613 -0.0068853204
0.0061440086 0.002181536 -0.010402713 0.018839853 0.0074861124 0.0029683416 0.020746766 0.017891787
0.007916673 0.007996042 0.012394621 -0.0035744403 -0.015195416 0.008178523 -0.0039060866 0.009379899
-0.006945925 0.012111933 0.013950191 -0.0059146113 -0.002827343 -0.003698111 0.006507235 0.0066609858
00000000: c994 803c 47d0 453c 6194 a0bb 0fda 483b
00000010: bbd6 56bb 07f3 463c ffce 11bc 6b56 9b3c
00000020: 39b1 7a3c 0199 193a 0778 a2bb bad0 54bb
00000030: 4c46 313c 8e24 2ebc 1ce2 2f3b 146f 8f3c
00000040: 1bb2 c43b 246a 0ebb 7361 7e3c f2d2 e73b
00000050: 7526 033c d13a edbb dae5 423c 8101 26bc
00000060: 9398 c8bb c3cb 04bc 5e6c 0bbc 0298 a43c
00000070: 92f7 7b3c f5ea 2b3c 9711 b03b 9f21 67bb
00000080: 3e0d de3b 3f75 ecbb b8ae 80bb 1c47 083c
00000090: cd9a 5d3c 5778 1dbb 06d5 f0bb 419e e1bb
000000a0: ae53 c93b 1af8 0e3b 2470 2abc 0956 9a3c
000000b0: 104e f53b 8288 423b 1ff5 a93c cc91 923c
000000c0: efb4 013c d501 033c cf12 4b3c 2841 6abb
000000d0: 32f6 78bc 36ff 053c 42fd 7fbb 26ae 193c
000000e0: a49a e3bb 2171 463c 588f 643c 5bcf c1bb
000000f0: f24a 39bb 025c 72bb a53a d53b 6644 da3b

arith.constant4 f4 [64]
0.014753896 0.014136762 0.0032997595 0.0165862 -0.005650644 0.0081988685 0.017779488 -0.0062114457
0.030623162 0.016899997 -0.0072191725 -0.0078023006 -0.012490174 0.0030334329 0.001445169 -0.008465794
0.010666437 -0.001740869 -0.014964553 -0.015014298 -0.009024055 0.013064747 0.0017779216 0.007281367
0.016259372 0.0039171306 0.0117729595 0.013541834 0.005742198 0.017421413 0.01676196 0.010401908
0.0108867055 -0.010945241 0.017800016 -0.0026566437 0.036373954 -0.0054649734 0.014822674 0.01659086
0.0070254523 0.014695379 0.014570938 0.016809117 0.014235172 0.0009246915 0.01688613 0.009961478
0.005267718 0.008505405 -0.008845065 0.016720677 0.01562074 0.016024819 -0.0032036188 0.017865282
0.01238881 -0.006008146 0.016228259 -0.0070306547 0.021515518 0.014149441 0.012455871 -0.008923783
00000000: 53ba 713c e19d 673c c740 583b c8df 873c
00000010: 0a29 b9bb 8c54 063c 4aa6 913c 6289 cbbb
00000020: 6ddd fa3c dd71 8a3c cf8e ecbb 71aa ffbb
00000030: 96a3 4cbc 8fcc 463b d36b bd3a 1db4 0abc
00000040: 48c2 2e3c df2d e4ba e22d 75bc 88fe 75bc
00000050: a1d9 13bc 850d 563c 2609 e93a 8998 ee3b
00000060: 6032 853c 465b 803b 5fe3 403c 92de 5d3c
00000070: 0c29 bc3b 5ab7 8e3c 6150 893c c46c 2a3c
00000080: 275e 323c ab53 33bc 57d1 913c 161b 2ebb
00000090: dbfc 143d 8513 b3bb cdda 723c 8ee9 873c
000000a0: c435 e63b e3c4 703c f2ba 6e3c 46b3 893c
000000b0: a43a 693c ff66 723a c854 8a3c 7835 233c
000000c0: d29c ac3b 415a 0b3c e4ea 10bc cdf9 883c
000000d0: 22ee 7f3c 7b46 833c cef3 51bb 365a 923c
000000e0: 6ffa 4a3c fbdf c4bb 20f1 843c 6861 e6bb
000000f0: 5041 b03c 0fd3 673c b613 4c3c 0f35 12bc

arith.constant5 f4 [64]
0.02841913 -0.010771511 -0.00024632536 0.011560788 0.0125607895 -0.027901256 -0.0078107 0.016193766
0.02472691 0.011526876 0.020678498 0.009041341 0.027002368 0.03165381 0.009988491 0.011993468
-0.016680975 0.022863127 0.011248334 0.00015096138 0.005311961 0.01913472 0.01703509 0.016170459
0.02034915 -0.014669764 -0.014853132 0.008415119 0.011593871 0.01629743 -0.008760885 -0.0077445437
-0.009852816 0.026532428 -0.008717894 -0.005464965 0.018680964 0.018244706 0.029155526 0.02643481
0.0058923955 0.020700218 -0.012598834 0.027226381 -0.013690942 -0.01285616 -0.0019847495 0.026467405
0.035543635 0.016492052 -0.009897335 -0.009339026 0.012444485 0.024174683 -0.00292138 0.005766708
-0.012412596 0.017536486 0.028408488 -0.014847789 0.029455435 -0.017175218 -0.011561229 0.018832218
00000000: 3ccf e83c fe7a 30bc 3b25 81b9 7669 3d3c
00000010: c5cb 4d3c 2d91 e4bc e7f0 ffbb caa8 843c
00000020: 1790 ca3c 39db 3c3c f465 a93c 2222 143c
00000030: 1234 dd3c 6da7 013d c5a6 233c 4080 443c
00000040: 8aa6 88bc 744b bb3c ef4a 383c 634b 1e39
00000050: f50f ae3b 6bc0 9c3c 2c8d 8b3c e977 843c
00000060: 43b3 a63c 7359 70bc 8d5a 73bc 91df 093c
00000070: 38f4 3d3c 3082 853c d189 0fbc f1c5 fdbb
00000080: b56d 21bc 895a d93c 7fd5 0ebc 7313 b3bb
00000090: d208 993c ec75 953c 92d7 ee3c d18d d83c
000000a0: ff14 c13b 8193 a93c 576b 4ebc dc09 df3c
000000b0: f94f 60bc a5a2 52bc 9212 02bb 2cd2 d83c
000000c0: 3496 113d 571a 873c 6f28 22bc b702 19bc
000000d0: f4e3 4b3c fc09 c63c a074 3fbb a7f6 bc3b
000000e0: 335e 4bbc ada8 8f3c ebb8 e83c 2444 73bc
000000f0: 864c f13c 0bb3 8cbc 4f6b 3dbc 0646 9a3c

arith.constant6 f4 [32]
0.018094864 0.0061638537 -0.005546954 -0.017190019 0.03418142 0.0019673847 0.020238718 0.043203603
0.04146846 0.023224758 0.022973133 0.018339844 0.035688076 0.018011542 0.0022105419 0.0065767877
-0.017761461 0.029717708 0.010237483 -0.01739787 0.013458401 -0.009722252 0.010963331 -0.005174393
-0.018541947 -0.022596134 0.011461936 -0.030185387 0.011020488 0.011730755 -0.03352227 -0.0066293986
00000000: ae3b 943c 27fa c93b 39c3 b5bb 15d2 8cbc
00000010: d101 0c3d 3def 003b abcb a53c 43f6 303d
00000020: d5da 293d d941 be3c 2732 bc3c 713d 963c
00000030: a92d 123d f18c 933c bdde 103b 1882 d73b
00000040: 7c80 91bc 8d72 f33c 1ebb 273c fa85 8ebc
00000050: a080 5c3c 154a 1fbc 8b9f 333c f48d a9bb
00000060: 48e5 97bc 871b b9bc d8ca 3b3c 5847 f7bc
00000070: 478f 343c 5a32 403c a64e 09bd 6d3b d9bb

arith.constant7 f4 [64, 3, 3, 64]
0.05447576 0.0694415 -0.07388298 -0.021897573 -0.007128016 0.053501226 -0.050975807 -0.074732065
-0.015770402 -0.039499685 -0.021889107 -0.03402999 0.055039946 0.058275033 -0.053839426 0.014026853
0.008737792 -0.049026173 -0.007980513 -0.013877544 0.0324737 -0.025326021 0.018701792 0.023976834
0.030980885 -0.053552642 -0.063297816 -0.0663987 -0.062726386 -0.046022978 -0.019976107 -0.08249725
-0.05358698 -0.0075675696 -0.06357055 -0.060189564 0.003053349 0.045299653 -0.011778793 0.05780336
0.032697055 -0.073833466 -0.06311516 0.052626386 0.025993798 0.06578127 0.0076959217 0.05966079
-0.057849046 -0.059586175 -0.04809718 0.024001896 -0.028346952 0.0072758333 0.0031980867 0.028252084
-0.022304792 -0.057640813 -0.06469026 -0.0264927 0.0370704 0.05279338 -0.07734971 -0.053979427
0.060837172 0.064035796 -0.0179829 -0.0100627905 0.05185808 -0.010836855 -0.05458366 -0.073799536
0.08144456 -0.038314685 -0.05279172 0.011222711 -0.04215945 -0.029483143 -0.10100071 0.026552856
-0.044935994 0.039835684 -0.06808077 -0.06932417 0.054943305 0.028366143 -0.008525847 -0.029952789
0.05961767 0.058446065 -0.023428425 -0.06090453 0.059931535 0.022071742 0.06118864 0.0018593065
0.02562396 -0.032073468 0.044849306 0.037322536 0.0005002587 0.048725437 -0.0061115017 0.07054109
0.03484273 0.054000203 -0.068581656 -0.034848005 -0.043717053 -0.064541295 0.074801475 0.04196684
0.035311386 -0.069811754 0.037481487 0.060854834 -0.06181149 0.030688982 -0.061071716 -0.06319437
-0.011182161 -0.03306847 0.022649586 0.020338196 -0.05120553 -0.05253417 -0.042474955 0.0112085715
-0.004179418 -0.060502604 0.02077323 0.030291291 -0.007438947 -0.05606605 -0.040117886 -0.060869437
-0.06292545 0.06363911 -0.040568873 -0.050774094 -0.071153484 -0.030553374 0.06601743 -0.022351354
0.044309635 0.0070385 0.018052777 -0.047277708 -0.06604493 0.05092479 -0.008315355 0.036790904
0.0028982991 -0.040568735 -0.019972311 -0.02493411 0.051156115 -0.022064336 -0.0042301477 -0.07427128
0.0062247403 -0.040858097 0.062713675 -0.064268 0.012509619 0.02736366 0.062427036 0.05471714
0.046293043 0.0015557071 0.016181625 0.06343994 0.00870766 0.02530045 -0.066995054 0.097429685
0.04677684 -0.058870867 0.07233533 0.024400298 -0.008605572 -0.059652854 -0.010740071 0.054800075
0.011982219 0.05304063 0.009467636 -0.0011743318 0.043869596 0.058094606 -0.060876604 0.028925154
-0.07234732 0.05053321 -0.00833634 -0.03845246 0.052079134 0.01962669 -0.014987571 -0.04537288
-0.049581427 0.02023901 0.007718714 -0.05156839 -0.037587952 -0.0057819593 -0.03465108 0.043577712
-0.06733421 -0.065747604 0.05258153 -0.07706915 0.061445888 -0.018396363 0.012873549 0.006560467
0.051554162 0.05914531 -0.06250134 0.028679043 -0.05379886 -0.0682313 -0.023485128 0.015099769
0.025599863 -0.047255404 -0.060165152 0.00080168614 0.05263138 -0.014869492 0.011415478 -0.04761742
-0.010404709 -0.08937385 -0.026957026 0.058469173 -0.049137108 0.056687526 0.07510888 -0.008221902
-0.016282804 0.0065799365 -0.059833113 0.031591836 -0.02489406 0.03152065 -0.0036039632 0.011135098
0.050113957 0.025386564 -0.060014207 0.055573672 0.055022657 0.0071462216 -0.06616226 0.01178426
00000000: f921 5f3d 5837 8e3d f64f 97bd 8a62 b3bc
00000010: 2292 e9bb 1a24 5b3d 02cc 50bd 200d 99bd
00000020: ee30 81bc 6cca 21bd c950 b3bc 0863 0bbd
00000030: 9171 613d cdb1 6e3d bb86 5cbd e3d0 653c
00000040: f528 0f3c abcf 48bd b3c0 02bc a35e 63bc
00000050: 2403 053d 8478 cfbc 8034 993c 116b c43c
00000060: a0cb fd3c 045a 5bbd 49a2 81bd 0bfc 87bd
00000070: b176 80bd 9782 3cbd efa4 a3bc 51f4 a8bd
00000080: 057e 5bbd 60f9 f7bb 4731 82bd 5589 76bd
00000090: b21a 483b 218c 393d d7fb 40bc 37c3 6c3d
000000a0: 59ed 053d 0036 97bd 8542 81bd c48e 573d
000000b0: f2f0 d43c 55b8 863d 122e fc3b df5e 743d
000000c0: 1ff3 6cbd a210 74bd 8c01 45bd a09f c43c
000000d0: de37 e8bc 1d6a ee3b fe96 513b ea70 e73c
000000e0: 8ab8 b6bc c618 6cbd 547c 84bd 3807 d9bc
000000f0: 22d7 173d df3d 583d 8669 9ebd 8819 5dbd
00000100: 6630 793d 3325 833d e050 93bc 67de 24bc
00000110: 2369 543d 108d 31bc 1e93 5fbd 3624 97bd
00000120: 68cc a63d dcef 1cbd 213c 58bd 76df 373c
00000130: 63af 2cbd a286 f1bc 76d9 cebd 6085 d93c
00000140: ce0e 38bd be2a 233d ee6d 8bbd d5f9 8dbd
00000150: 3b0c 613d 1d60 e83c ffaf 0bbc 8d5f f5bc
00000160: a831 743d 2465 6f3d f8ec bfbc 0777 79bd
00000170: c57a 753d cccf b43c f0a0 7a3d f9b3 f33a
00000180: 57e9 d13c 785f 03bd e8b3 373d 84df 183d
00000190: cb23 033a 5394 473d fe42 c8bb d977 903d
000001a0: 40b7 0e3d 512f 5d3d 8a74 8cbd c8bc 0ebd
000001b0: a710 33bd 3a2e 84bd 8431 993d 6ce5 2b3d
000001c0: aca2 103d 77f9 8ebd 3086 193d eb42 793d
000001d0: 0c2e 7dbd 7667 fb3c 5626 7abd 0d6c 81bd
000001e0: 6235 37bc ce72 07bd a08b b93c 4a9c a63c
000001f0: e4bc 51bd 122e 57bd 38fa 2dbd 28a4 373c
00000200: 80f3 88bb 94d1 77bd 9f2c aa3c 7125 f83c
00000210: 69c2 f3bb 84a5 65bd a752 24bd 3b52 79bd
00000220: 0fdf 80bd 3955 823d 8c2b 26bd 7ff8 4fbd
00000230: ebb8 91bd 124b fabc 2534 873d 301a b7bc
00000240: 057e 353d 38a3 e63b 6be3 933c 45a6 41bd
00000250: 9042 87bd 8396 503d 203d 08bc 0fb2 163d
00000260: 64f1 3d3b 672b 26bd f99c a3bc 9e42 ccbc
00000270: 1389 513d 44c0 b4bc 0d9d 8abb 8a1b 98bd
00000280: e8f8 cb3b d25a 27bd 0770 803d f19e 83bd
00000290: 25f5 4c3c c129 e03c 7eb3 7f3d 141f 603d
000002a0: c69d 3d3d dee8 cb3a 548f 843c cdec 813d
000002b0: 93aa 0e3c e442 cf3c b434 89bd 3789 c73d
000002c0: 1299 3f3d 9422 71bd 8c24 943d 22e3 c73c
000002d0: 63fe 0cbc 8d56 74bd 1ff7 2fbc 0b76 603d
000002e0: 1251 443c 2241 593d 251e 1b3c 09ec 99ba
000002f0: 9bb0 333d 9cf4 6d3d bf59 79bd 72f4 ec3c
00000300: d52a 94bd e9fb 4e3d 2595 08bc 5480 1dbd
00000310: ee50 553d 27c8 a03c 6e8e 75bc ead8 39bd
00000320: e515 4bbd 48cc a53c 44ed fc3b 6039 53bd
00000330: d3f5 19bd 9776 bdbb 4aee 0dbd 8b7e 323d
00000340: 85e6 89bd aea6 86bd bb5f 573d 6ed6 9dbd
00000350: afae 7b3d f8b3 96bc 94eb 523c 30f9 d63b
00000360: 752a 533d 5a42 723d b400 80bd 50f0 ea3c
00000370: 325c 5cbd dabc 8bbd e263 c0bc 0665 773c
00000380: ceb6 d13c e28e 41bd bc6f 76bd 3f28 523a
00000390: 0094 573d 2b9f 73bc fc07 3b3c 7c0a 43bd
000003a0: 8378 2abc a309 b7bd fbd4 dcbc 5f7d 6f3d
000003b0: fe43 49bd 2e31 683d afd2 993d 28b5 06bc
000003c0: 8463 85bc 829c d73b 9113 75bd 7166 013d
000003d0: a1ee cbbc cc1b 013d 7830 6cbb fc6f 363c
000003e0: 4b44 4d3d 7cf7 cf3c 75d1 75bd 38a1 633d
000003f0: 705f 613d da2a ea3b 1480 87bd c512 413c

arith.constant8 f4 [64, 3, 3, 64]
0.06241138 0.047895674 -0.05222399 0.07437317 0.07579899 -0.041629188 -0.046585377 0.017548122
0.059531204 0.01818211 0.022815768 -0.05565839 -0.018013174 0.064748816 0.051268477 -0.03265281
0.0022215897 0.011689953 0.053260192 0.029554443 0.0719036 -0.049656373 0.038682424 0.011742664
0.054855686 -0.06558651 0.03951243 0.022551332 -0.044089187 0.06652771 -0.026866093 0.03863454
0.04110733 -0.012274103 0.044542607 -0.025066707 -0.06199647 0.038938805 0.022874001 -0.056862872
-0.018755754 0.048395034 0.03534031 0.05266837 -0.008537089 0.03170071 0.042182732 0.05892989
0.046740163 -0.037595205 0.011129738 0.017498793 0.046846725 -0.057571337 -0.024635537 0.0065619824
-0.022529345 0.030049391 0.03096269 -0.024681395 0.05492882 -0.030996935 -0.025472093 0.018382104
-0.068325326 0.025156992 -0.023692865 0.06988876 0.07175843 0.040177464 0.0066099656 -0.009314382
0.04980886 0.08222549 0.051765352 -0.02226745 -0.010297496 0.045064885 -0.07004637 -0.03809111
0.012431956 -0.046797775 -0.06560204 -0.06268035 0.025628878 -0.050710276 0.055021416 -0.0008243782
-0.033326685 0.06531822 0.06347139 0.0059262123 0.058554348 0.019992365 0.058780767 -0.033389702
-0.0108224815 -0.020365568 0.06903385 -0.03853814 -0.0010418106 -0.02816233 -0.0030318408 -0.011713306
-0.008808761 -0.077825814 -0.06850883 0.0167406 0.015497517 -0.03031372 0.060876556 -0.05540088
-0.017586218 -0.04587193 0.0068617025 -0.02393819 -0.0049752546 0.061283913 0.055530082 -0.050827943
0.04387539 0.0051552258 -0.05736916 0.014929185 0.044785503 0.06052876 0.029295456 0.006742007
-0.008691604 0.06379467 0.017434014 0.050178368 0.045499034 -0.010640215 0.028837495 -0.0039967312
0.060293995 -0.0030767953 -0.03310026 -0.019796044 -0.01239133 -0.046052977 -0.05472615 -0.008151392
0.04531642 -0.023038335 -0.07090279 -0.03929274 -0.022626217 -0.0050976914 0.036727276 -0.056128547
-0.06536941 -0.01968486 0.017673468 0.032322515 0.09213571 -0.035682563 0.006325136 -0.049799778
-0.008389217 -0.055647384 -0.054932773 -0.0121598225 -0.009151534 0.06829304 -0.050713573 0.029641816
0.037870023 0.050561253 -0.06871404 -0.01671279 -0.06898698 0.0011939842 -0.011213196 -0.054455046
0.03541971 -0.02308932 0.0178089 -0.070935875 -0.027693335 0.01924951 -0.06877986 -0.02432528
0.00830781 -0.06604502 0.006621144 -0.035467476 0.06920811 0.06083518 0.010797171 -0.03975066
-0.057187185 -0.041556727 -0.038244788 -0.012077521 0.0023504372 0.0013553763 0.037701033 0.029945038
0.06510822 0.02252544 -0.04099871 -0.008317465 -0.022733113 0.037873775 0.0023456416 -0.026714148
-0.023093956 -0.061318282 0.012150145 -0.03299785 0.06161151 0.015102274 0.027900271 0.01187453
0.069909036 0.030899694 0.052018523 -0.013200433 0.05232946 -0.03449695 -0.029214183 0.06846763
0.0631556 0.031793844 0.03128201 0.0019449324 -0.048994265 0.050792202 0.034968674 -0.0058759297
-0.023311645 -0.017021881 0.0061770957 -0.016409192 -0.030750986 0.032643985 0.06591427 0.067286424
0.044692826 -0.03723701 0.022177473 -0.026979407 -0.03280079 0.048300486 0.06587543 0.058266923
-0.061068576 0.07549046 0.06813048 0.0150022255 -0.01223534 -0.027584419 -0.030241974 0.026400432
00000000: 13a3 7f3d 412e 443d d3e8 55bd f650 983d
00000010: 803c 9b3d 5e83 2abd 4fd0 3ebd 14c1 8f3c
00000020: fed6 733d a6f2 943c 22e8 ba3c 0dfa 63bd
00000030: 5d90 93bc 079b 843d e5fe 513d f4be 05bd
00000040: 1798 113b 3787 3f3c 5c27 5a3d 291c f23c
00000050: 3242 933d 7b64 4bbd 7671 1e3d 4d64 403c
00000060: 5bb0 603d 3852 86bd c9d7 213d 92bd b83c
00000070: dd96 34bd ae3f 883d 4816 dcbc 403f 1e3d
00000080: 2960 283d 5219 49bc 4f72 363d b258 cdbc
00000090: 03f0 7dbd 4c7e 1f3d 4262 bb3c 0be9 68bd
000000a0: aba5 99bc df39 463d 00c1 103d caba 573d
000000b0: 26df 0bbc 9bd8 013d cdc7 2c3d 7860 713d
000000c0: 9d72 3f3d 6efd 19bd 8159 363c a159 8f3c
000000d0: 5ae2 3f3d eccf 6bbd 77d0 c9bc e605 d73b
000000e0: 768f b8bc 242a f63c 78a5 fd3c a330 cabc
000000f0: 0bfd 603d 49ed fdbc daaa d0bc 1196 963c
00000100: 26ee 8bbd 0916 ce3c 8a17 c2bc d721 8f3d
00000110: 15f6 923d 2091 243d 6998 d83b 5a9b 18bc
00000120: 6004 4c3d d665 a83d e807 543d 3a6a b6bc
00000130: d4b6 28bc f595 383d 7974 8fbd 6c05 1cbd
00000140: 67af 4b3c 06af 3fbd 5d5a 86bd 8e5e 80bd
00000150: a7f3 d13c 94b5 4fbd 235e 613d 161b 58ba
00000160: 9081 08bd 8fc5 853d 4afd 813d ac30 c23b
00000170: afd6 6f3d 07c7 a33c 1ac4 703d a4c3 08bd
00000180: c750 31bc b1d5 a6bc 9f61 8d3d 2bda 1dbd
00000190: 5d8d 88ba b0b4 e6bc d9b1 46bb 2be9 3fbc
000001a0: 9f52 10bc 2463 9fbd 5c4e 8cbd 9523 893c
000001b0: 4ce9 7d3c 7b54 f8bc b259 793d 08ec 62bd
000001c0: f910 90bc 34e4 3bbd 22d8 e03b 061a c4bc
000001d0: 7607 a3bb d704 7b3d 8373 633d f630 50bd
000001e0: aeb6 333d 2bed a83b edfb 6abd 8a99 743c
000001f0: 0171 373d 01ed 773d 06fd ef3c 0eec dc3b
00000200: 3b67 0ebc c8a6 823d c7d1 8e3c d587 4d3d
00000210: 325d 3a3d 4c54 2ebc 9c3c ec3c 03f7 82bb
00000220: d6f6 763d 0fa4 49bb 2394 07bd 502b a2bc
00000230: 0105 4bbc 0ca2 3cbd 8728 60bd 6b8d 05bc
00000240: b69d 393d e4ba bcbc 7b35 91bd 6df1 20bd
00000250: 9e5a b9bc 890a a7bb 576f 163d 0ce7 65bd
00000260: 66e0 85bd 2542 a1bc f3c7 903c 9d64 043d
00000270: a6b1 bc3d e127 12bd 1643 cf3b dafa 4bbd
00000280: ed72 09bc 83ee 63bd 3001 61bd fe39 47bc
00000290: 51f0 15bc 39dd 8b3d 09b9 4fbd 65d3 f23c
000002a0: 991d 1b3d 5119 4f3d f2b9 8cbd 43e9 88bc
000002b0: 0c49 8dbd 767f 9c3a 8eb7 37bc 410c 5fbd
000002c0: 4214 113d d025 bdbc f8e3 913c d446 91bd
000002d0: 22dd e2bc 26b1 9d3c 75dc 8cbd cf45 c7bc
000002e0: 7b1d 083c 9d42 87bd 2ef6 d83b 5846 11bd
000002f0: fbbc 8d3d 4f2e 793d 9ee6 303c 97d1 22bd
00000300: 1c3d 6abd 6337 2abd 91a6 1cbd cbe0 45bc
00000310: cb09 1a3b e2a6 b13a 666c 1a3d 4c4f f53c
00000320: 7557 853d 4687 b83c 43ee 27bd fa45 08bc
00000330: cb3a babc 8821 1b3d 56b9 193b a1d7 dabc
00000340: 892f bdbc e128 7bbd 6711 473c c128 07bd
00000350: 5a5c 7c3d 876f 773c 1c8f e43c 648d 423c
00000360: 782c 8f3d 5b21 fd3c 6011 553d a146 58bc
00000370: 6a57 563d ad4c 0dbd 9552 efbc c238 8c3d
00000380: b957 813d 433a 023d 9121 003d 1aed fe3a
00000390: 36ae 48bd 7c0b 503d 503b 0f3d df8a c0bb
000003a0: 10f8 bebc 7971 8bbc 3c69 ca3b 926c 86bc
000003b0: 7ee9 fbbc b3b5 053d 10fe 863d 77cd 893d
000003c0: d30f 373d d685 18bd 88ad b53c eb03 ddbc
000003d0: 1f5a 06bd bbd6 453d b3e9 863d 4ca9 6e3d
000003e0: 0b23 7abd be9a 9a3d fe87 8b3d e5cb 753c
000003f0: bc76 48bc b8f8 e1bc 04be f7bc b845 d83c

arith.constant9 f4 [64, 3, 3, 64]
0.022295307 -0.029844938 -0.033051655 0.08272437 0.061347257 0.07751226 -0.023994846 -0.012589033
-0.04618817 3.9376737e-05 0.07313358 0.034610473 -0.0218912 -0.009030532 0.035083283 0.025210457
0.0063798255 0.09024644 -0.05311632 -0.03821901 0.051230554 0.057088133 0.08393079 0.07429156
-0.037064187 -0.0419732 0.04376612 -0.019007344 -0.10770158 0.05791271 0.022859542 -0.0075763967
0.052430604 -0.06286357 -0.051209167 -0.04423295 -0.04570228 -0.057770904 -0.0017336244 0.02151248
0.0003075214 -0.012935474 -0.013659311 0.024104511 0.058278427 0.038979497 0.018873205 -0.004140989
0.07546832 0.049422316 -0.015166446 0.030309314 0.044323206 0.06224707 -0.0055362666 0.06680013
0.041663043 0.028041823 -0.040084515 -0.0073333546 0.056316823 -0.028676325 0.03904208 0.057931762
0.03536806 -0.04914823 0.056076538 -0.034780633 0.085266456 0.080925345 -0.00880621 0.07796648
0.0031020714 -0.0044519734 0.08642996 -0.011807932 -0.048401795 -0.04282086 -0.047765557 0.017740993
-0.026396018 -0.041096304 -0.054722745 0.002981408 -0.020407451 0.05488799 -0.020243974 0.013284167
-0.03806152 0.0686419 -0.023409568 0.054981284 -0.0072804224 0.08989367 -0.012368605 0.0030842351
0.08709333 0.043884136 0.042821348 0.049940187 0.04477691 0.04378711 0.029928867 0.009063814
0.07694261 -0.026469573 -0.011090499 -0.044333354 0.010990779 0.07131771 0.042144336 -0.043535966
-0.014312636 -0.014230197 0.00746281 0.07492849 0.07709361 -0.004547105 0.05944375 0.07040826
0.027530724 0.012256762 0.04264278 -0.045822836 -0.03748604 -0.023605132 -0.01724499 -0.04387047
0.019586327 -0.05363001 -0.03798755 0.0017895239 0.0057046046 0.062584355 -0.046456963 -0.055268817
-0.046425655 0.035538554 0.0485846 0.038678493 0.010232698 -0.08688142 0.085841544 0.026356457
0.003593094 0.08762649 0.01885514 0.018095905 -0.010490261 0.07027567 -0.03204831 -0.068668604
-0.039743535 -0.00011130061 -0.02157548 -0.05197679 0.023355009 0.04614441 0.038417928 -0.011081554
-0.016554361 0.05463776 -0.05886506 0.006037719 -0.015512776 0.057450358 -0.018803518 0.03749421
-0.008868033 -0.024266042 -0.0048889667 0.02199601 0.0063750427 -0.031575706 -0.040584277 0.04307001
0.008502238 -0.034540165 0.02184469 0.036335476 -0.033159565 -0.027998054 0.071093515 -0.015475042
-0.011629244 0.019533634 -0.013084304 -0.04269873 -0.065664165 -0.017458607 -0.02244679 -0.05950498
-0.014562261 -0.030644538 0.07279054 -0.041729033 0.0024808703 0.033077136 -0.015522331 0.05456197
0.0152504295 0.036405865 -0.004620749 -0.0508425 0.0502506 -0.037023213 0.05844839 0.05739599
0.08280244 -0.011352865 -0.003409305 -0.007856467 0.06346588 -0.010845693 -0.03468105 0.04787187
-0.031996932 -0.018159375 0.07769399 -0.01438867 -0.05859942 -0.008993592 0.027590986 0.026191376
0.041627556 0.024765458 0.0675833 -0.01842534 -0.0313084 -0.04133861 -0.04492342 0.010671257
-0.04235264 0.0542349 0.014770082 -0.05425691 0.08413596 -0.019349657 -0.041119326 0.08204863
0.06307262 -0.017592005 0.011347367 0.10296144 0.028135786 0.012244575 0.027248034 -0.018715352
0.061789565 0.08549555 0.08416843 0.0071257874 -0.03216303 -0.053147584 0.021228652 -0.05473813
00000000: a6a4 b63c 5f7d f4bc 2c61 07bd 656b a93d
00000010: 4347 7b3d bfbe 9e3d d790 c4bc 3b42 4ebc
00000020: ce2f 3dbd 7328 2538 0fc7 953d b6c3 0d3d
00000030: 2d55 b3bc ccf4 13bc 7db3 0f3d 2986 ce3c
00000040: db0d d13b 20d3 b83d 8090 59bd 898b 1cbd
00000050: 21d7 513d 3fd5 693d e8e3 ab3d 2c26 983d
00000060: 9ed0 17bd 17ec 2bbd 1a44 333d 4ab5 9bbc
00000070: a592 dcbd e135 6d3d ef43 bb3c 6c43 f8bb
00000080: 79c1 563d 9ebe 80bd b4c0 51bd 9c2d 35bd
00000090: 5032 3bbd 2fa1 6cbd c83a e3ba f13a b03c
000000a0: d33a a139 4fef 53bc 4ecb 5fbc d376 c53c
000000b0: 5cb5 6e3d f7a8 1f3d fb9b 9a3c 22b1 87bb
000000c0: 228f 9a3d 0e6f 4a3d af7c 78bc 3d4b f83c
000000d0: 408c 353d c9f6 7e3d 9269 b5bb 82ce 883d
000000e0: dea6 2a3d f7b7 e53c a92f 24bd a34c f0bb
000000f0: 78ac 663d 9dea eabc 97ea 1f3d db49 6d3d
00000100: 19de 103d a84f 49bd 83b0 653d 2376 0ebd
00000110: 2ea0 ae3d 30bc a53d ec47 10bc e4ac 9f3d
00000120: 1f4c 4b3b dce1 91bb 3102 b13d 0e76 41bc
00000130: f640 46bd ed64 2fbd d1a5 43bd 8f55 913c
00000140: 763c d8bc 9954 28bd f524 60bd ba63 433b
00000150: 872d a7bc 3bd2 603d b1d6 a5bc d6a5 593c
00000160: 65e6 1bbd 2094 8c3d 6cc5 bfbc 0e34 613d
00000170: 9c90 eebb 2c1a b83d b0a5 4abc e120 4a3b
00000180: fd5d b23d dabf 333d 7065 2f3d 158e 4c3d
00000190: fe67 373d 1d5a 333d 622d f53c 6480 143c
000001a0: 1694 9d3d b8d6 d8bc edb4 35bc e496 35bd
000001b0: ab12 343c 050f 923d 8a9f 2c3d c552 32bd
000001c0: 8c7f 6abc c625 69bc 968a f43b 1c74 993d
000001d0: 41e3 9d3d e2ff 94bb 4a7b 733d 3532 903d
000001e0: 1d88 e13c 96d0 483c 32aa 2e3d bab0 3bbd
000001f0: f68a 19bd 8d5f c1bc 5e45 8dbc 86b1 33bd
00000200: 8173 a03c 24ab 5bbd d598 1bbd 758e ea3a
00000210: b1ed ba3b 3a2c 803d a849 3ebd 8e61 62bd
00000220: d428 3ebd e090 113d a500 473d 576d 1e3d
00000230: 0ca7 273c e3ee b1bd b1cd af3d 7fe9 d73c
00000240: 1d7a 6b3b 8475 b33d 1876 9a3c dd3d 943c
00000250: 58df 2bbc b1ec 8f3d 1745 03bd 20a2 8cbd
00000260: 1eca 22bd 0f6a e9b8 10bf b0bc 9de5 54bd
00000270: 0153 bf3c ec01 3d3d 1e5c 1d3d 688f 35bc
00000280: 039d 87bc d8cb 5f3d 7d1c 71bd 0fd8 c53b
00000290: 4c29 7ebc 1151 6b3d d609 9abc 8793 193d
000002a0: 3a4b 11bc 94c9 c6bc a033 a0bb fa30 b43c
000002b0: bce5 d03b 8755 01bd b33b 26bd 2e6a 303d
000002c0: f94c 0b3c fd79 0dbd a3f3 b23c 82d4 143d
000002d0: 53d2 07bd 2d5c e5bc 7a99 913d 088b 7dbc
000002e0: 9688 3ebc 0005 a03c 8c5f 56bc dde4 2ebd
000002f0: ef7a 86bd 5a05 8fbc 55e2 b7bc 7ebb 73bd
00000300: 8d96 6ebc 410a fbbc 3513 953d 10ec 2abd
00000310: 1996 223b e47b 073d 6051 7ebc 5f7c 5f3d
00000320: f0dc 793c 511e 153d a769 97bb 3a40 50bd
00000330: 93d3 4d3d a7a5 17bd 9467 6f3d 0f18 6b3d
00000340: 5394 a93d 5e01 3abc a56e 5fbb 69b8 00bc
00000350: 66fa 813d 22b2 31bc b70d 0ebd 4b15 443d
00000360: 370f 03bd f8c2 94bc 071e 9f3d 75be 6bbc
00000370: f205 70bd dc59 13bc 7e06 e23c 4c8f d63c
00000380: a881 2a3d eee0 ca3c 1d69 8a3d bdf0 96bc
00000390: 3d3d 00bd ad52 29bd 9f01 38bd 7fd6 2e3c
000003a0: f679 2dbd 6a25 5e3d 37fe 713c 7e3c 5ebd
000003b0: 794f ac3d 2c83 9ebc bd6c 28bd 1d09 a83d
000003c0: 382c 813d 1c1d 90bc 4fea 393c 73dd d23d
000003d0: 057d e63c 789d 483c 4537 df3c f050 99bc
000003e0: 0e17 7d3d 4a18 af3d 7f60 ac3d 707f e93b
000003f0: 62bd 03bd 48b1 59bd b6e7 ad3c 1735 60bd

arith.constant10 f4 [64, 3, 3, 64]
0.003267731 -0.09694468 -0.05116914 0.048902825 -0.007804178 -0.043803815 0.047157265 0.09057921
0.084345825 0.03934997 0.05079745 -0.025188774 -0.05320195 0.037005022 0.053220306 -0.05188703
-0.00046320146 0.11374573 0.017532108 -0.019728316 0.0568327 -0.004546643 0.051511798 -0.023958083
0.09353585 -0.05828377 0.005735484 0.0057853344 0.009566106 0.041161876 -0.010604857 -0.008307877
0.003781637 0.023728643 0.026668215 0.008993143 -0.03216126 0.05713174 -0.011463992 0.033471726
-0.046552178 0.0808049 -0.02506852 0.009295095 0.06449595 -0.040569033 -0.05441951 -0.06299846
0.03488384 -0.03508264 0.05776695 0.05942236 0.07135577 0.013161396 0.0899513 0.009892184
0.0036115844 -0.04249965 0.0055538695 0.031030802 0.0012135131 0.024387237 0.041045185 -0.021931117
0.058280982 -0.059026144 -0.07525854 -0.047814872 0.0092864875 -0.027571453 -0.047615945 0.029536417
0.034739267 -0.062130284 -0.007563055 -0.046314318 0.00033646476 0.043111525 0.021355294 -0.022332123
-0.039924957 0.07113964 -0.054791998 0.014761816 0.05695371 0.0258261 0.083051465 -0.015109754
-0.03920887 0.011716747 0.010584261 -0.080843225 0.024348628 0.07649143 -0.012968136 -0.028384317
-0.044849392 0.060922038 0.054080814 0.041465916 -0.019921077 -0.04947147 -0.0031226971 0.01303252
0.024993641 0.027582312 -0.04796068 0.07902222 -0.07414611 0.05906344 -0.0669998 -0.070326984
-0.017877433 0.07136446 -0.07608172 -0.01121427 0.022572985 -0.015751263 0.0739705 -0.07743421
0.034695614 0.062823735 -0.007160335 -0.0383825 3.6949277e-05 -0.06574698 -0.018004416 0.01900518
0.021819534 0.039306533 -0.061294038 -0.01120527 0.0642241 -0.062160436 0.03136797 0.039721858
0.09538944 -0.059495118 0.05603651 -0.05006305 0.022963066 -0.02299176 -0.0012572656 0.064925596
-0.009862551 0.034018066 0.026870608 0.002162799 -0.032351643 -0.027247649 0.044966016 0.0344957
-0.04524468 0.002956571 -0.046739753 -0.055594843 -0.053171 -0.0006069108 -0.054164045 -0.041145105
-0.04942496 -0.03795405 0.042488325 -0.015641935 -0.014039622 0.049514756 -0.011707026 -0.03718273
-0.032956745 0.021721562 0.057945177 -0.011258655 -0.011013908 0.02424868 -0.053781267 0.03453873
0.018069508 0.01514994 0.03589392 0.056183077 -0.07470003 -0.036960952 0.09684246 -0.035618454
-0.016600816 -0.046041112 -0.004927968 -0.08036055 0.020455275 -0.072627194 -0.05679474 -0.03284398
0.07206558 -0.031069105 0.033213336 -0.038725283 -0.070238054 -0.063028835 -0.0031572198 0.0842822
0.006510892 0.018659936 0.071415395 -0.04354713 0.039581314 0.002335492 0.03581539 -0.03119546
-0.05840751 0.083926186 0.015290467 0.05733758 0.06302567 0.08738531 0.036173303 -0.033369124
-0.0396379 -0.059692502 0.046106234 -0.008371176 -0.016490504 0.07339642 -0.029642692 0.038970727
-0.0803268 0.0072625056 -0.06532961 0.006049754 0.08478362 0.054366432 0.06938104 0.02401349
0.058990348 0.015140619 -0.016162077 0.12331709 -0.015282691 -0.028150287 0.03881093 -0.061814383
0.13375753 0.025852347 -0.07724201 -0.060218263 0.01134795 -0.0034700697 0.11538539 -0.064841315
0.04242787 -0.0107237445 0.10746342 0.019835202 0.09532686 0.05698813 0.021320349 -0.005567459
00000000: 6e27 563b ef8a c6bd bb96 51bd 544e 483d
00000010: 31ba ffbb a16b 33bd fa27 413d 9881 b93d
00000020: 81bd ac3d 6f2d 213d fd10 503d b058 cebc
00000030: 4aea 59bd 9492 173d 89fd 593d 7f87 54bd
00000040: d9d9 f2b9 85f3 e83d 7f9f 8f3c 479d a1bc
00000050: 68c9 683d 01fc 94bb 09fe 523d be43 c4bc
00000060: b98f bf3d f6ba 6ebd baf0 bb3b e792 bd3b
00000070: 28bb 1c3c 5b99 283d febf 2dbc c31d 08bc
00000080: 57d5 773b 9262 c23c 4d77 da3c fa57 133c
00000090: 86bb 03bd f902 6a3d 78d3 3bbc a619 093d
000000a0: 7fad 3ebd 0a7d a53d 7f5c cdbc 744a 183c
000000b0: 7416 843d b72b 26bd fee6 5ebd 5605 81bd
000000c0: 5be2 0e3d d0b2 0fbd 0a9d 6c3d dc64 733d
000000d0: f922 923d e5a2 573c 6338 b83d d412 223c
000000e0: 55b0 6c3b 1d14 2ebd 3cfd b53b 4f34 fe3c
000000f0: be0e 9f3a bec7 c73c ff1e 283d e3a8 b3bc
00000100: 0ab8 6e3d 66c5 71bd 2621 9abd 87d9 43bd
00000110: 5a26 183c 87dd e1bc f008 43bd 5bf6 f13c
00000120: c34a 0e3d 537c 7ebd 81d3 f7bb 15b4 3dbd
00000130: 8967 b039 b695 303d 4cf1 ae3c dbf1 b6bc
00000140: 5a88 23bd a9b1 913d 936d 60bd 8bdb 713c
00000150: 4b48 693d 4291 d33c e316 aa3d e78e 77bc
00000160: 7b99 20bd 99f7 3f3c 9c69 2d3c 2291 a5bd
00000170: c676 c73c 8aa7 9c3d 4e78 54bc 3a86 e8bc
00000180: ffb3 37bd 6389 793d d883 5d3d 2ad8 293d
00000190: 8731 a3bc 99a2 4abd 2aa6 4cbb 5a86 553c
000001a0: 77bf cc3c 4df4 e13c 6b72 44bd 67d6 a13d
000001b0: ead9 97bd 81ec 713d 3137 89bd 9807 90bd
000001c0: b273 92bc 8827 923d bcd0 9bbd 0fbc 37bc
000001d0: fbea b83c cb08 81bc d87d 973d d495 9ebd
000001e0: fd1c 0e3d bba9 803d 3ea1 eabb f836 1dbd
000001f0: fcf9 1a38 5aa6 86bd ff7d 93bc c0b0 9b3c
00000200: e1be b23c e3ff 203d 750f 7bbd 4f96 37bc
00000210: ed87 833d f19b 7ebd b37b 003d 63b3 223d
00000220: 8a5b c33d 27b1 73bd 8a86 653d ea0e 4dbd
00000230: 0a1d bc3c 3759 bcbc d5ca a4ba b6f7 843d
00000240: 8a96 21bc 8756 0b3d c01f dc3c bfbd 0d3b
00000250: 2883 04bd 7636 dfbc 492e 383d 5d4b 0d3d
00000260: 7c52 39bd 08c3 413b 2f72 3fbd 6bb7 63bd
00000270: d6c9 59bd 1819 1fba 1edb 5dbd c587 28bd
00000280: d471 4abd b575 1bbd 3d08 2e3d 8423 80bc
00000290: 7106 66bc fccf 4a3d d3ce 3fbc eb4c 18bd
000002a0: a7fd 06bd 6bf1 b13c ec57 6d3d 3976 38bc
000002b0: ae73 34bc 2ba5 c63c bf49 5cbd 7c78 0d3d
000002c0: 8106 943c 7437 783c 8105 133d 3a20 663d
000002d0: 54fc 98bd 5e64 17bd 5755 c63d a8e4 11bd
000002e0: 6ffe 87bc 9b95 3cbd cb7a a1bb 1294 a4bd
000002f0: d291 a73c 91bd 94bd 9aa1 68bd 6987 06bd
00000300: 1e97 933d a384 febc b50a 083d 679e 1ebd
00000310: f8d8 8fbd 4315 81bd 5ce9 4ebb 259c ac3d
00000320: 5259 d53b b9dc 983c 3c42 923d 7a5e 32bd
00000330: 0420 223d 0e0f 193b 29b3 123d 9f8d ffbc
00000340: b73c 6fbd 7ee1 ab3d de84 7a3c cfda 6a3d
00000350: 9a13 813d 12f7 b23d 752a 143d 10ae 08bd
00000360: 5a5b 22bd 2080 74bd e4d9 3c3d 4227 09bc
00000370: 1817 87bc dd50 963d 3bd5 f2bc c59f 1f3d
00000380: 6182 a4bd 50fa ed3b 88cb 85bd 043d c63b
00000390: 09a3 ad3d 56af 5e3d a617 8e3d f0b7 c43c
000003a0: dd9f 713d 5c10 783c 5566 84bc ac8d fc3d
000003b0: 4164 7abc 6e9b e6bc 36f8 1e3d 1431 7dbd
000003c0: bcf7 083e 4dc8 d33c 0f31 9ebd 6da7 76bd
000003d0: c1ec 393c 1c6a 63bb 2d4f ec3d 86cb 84bd
000003e0: d9c8 2d3d a5b2 2fbc c815 dc3d 6f7d a23c
000003f0: bb3a c33d 636c 693d 03a8 ae3c 3b6f b6bb

arith.constant11 f4 [64, 3, 3, 32]
0.010207031 -0.017322201 -0.076902434 -0.069351934 0.00601129 -0.035170678 0.005214224 -0.0055054408
0.023820424 0.07046296 -0.018859947 -0.019412184 0.08543297 0.06388018 -0.060027014 -0.08925845
-0.028090637 0.086084865 6.12264e-05 -0.010615213 0.027636738 0.05762421 0.061639484 -0.02357927
-0.06436414 0.059155416 -0.012363884 -0.081352435 0.001503087 -0.010064446 0.028478734 0.06425216
0.07087251 -0.043614674 -0.060796645 -0.054985832 -0.028705873 -0.07020631 -0.054274447 0.004422813
0.067336835 -0.03079035 -0.012180775 -0.02271681 0.088392586 0.033119205 -0.018780932 0.07566343
0.04934184 -0.02928798 -0.013311436 0.031958904 -0.017874954 0.03818255 0.057307553 -0.016180838
0.007890066 -0.0054470035 0.0010549794 0.043604497 0.093722634 -0.008227764 -0.011565381 -0.010476355
0.01364648 -0.053302594 0.026709054 0.009164331 0.0386297 0.024228793 0.08673548 0.06748685
0.08157595 0.037867222 0.063512124 -0.0041899337 -0.015954664 -0.0148005495 0.059138216 0.01856126
-0.021827627 -0.036614254 0.05330555 -0.070457354 0.03834705 -0.044929605 -0.031820428 0.03379465
0.031023871 0.06775687 0.102484405 -0.012647529 0.12627593 -0.029601991 -0.023318129 0.0043866797
-0.016504286 -0.022014745 0.036557857 -0.057189167 -0.022651304 0.0014893529 -0.06935458 0.00410067
0.07412805 0.012327524 0.043873344 -0.0022459151 0.030666139 0.0016677466 0.03863187 -0.05204787
0.044041023 0.09660153 0.02968934 0.06789669 -0.014002053 -0.064309016 0.014793435 -0.040102426
-0.044180952 0.06613931 2.379694e-05 -0.033903223 -0.008502741 -0.039224897 0.063025646 0.014567255
-0.001531409 -0.049564783 0.010895898 0.045749385 0.04359277 0.031193117 0.011057122 -0.0001990115
0.033236146 0.0017886804 -0.05690482 0.06780927 -0.030155808 -0.0691149 0.008738075 -0.0054232352
-0.08188111 0.074057475 -0.04891709 0.07000784 -0.0632982 -0.0007430081 0.053012885 -0.014900638
-0.015942838 -0.06531809 0.016306432 -0.05797373 0.12060856 -0.11319277 -0.06508155 0.04088549
0.03382832 -0.054048706 0.044982556 -0.08156274 -0.032666557 0.034288745 0.06508486 0.070158966
0.048649203 -0.0015449463 -0.027220722 -0.042459417 0.08770481 0.0029009234 -0.042455282 -0.026068995
-0.015129535 0.042938393 0.01854034 -0.068475604 0.06335071 0.07929362 -0.027392229 0.032063387
-0.0070188297 0.018102195 -0.0054094195 0.049428694 -0.0016746445 -0.08689301 -0.08211494 0.026463358
0.015428831 -0.021617165 0.007889714 -0.07904337 0.08774491 -0.048262067 -0.08215116 0.041537955
0.053060703 0.042608723 0.0683637 -0.0020304087 0.105400845 -0.03949797 0.09001059 -0.07020504
0.06597325 0.12983543 -0.051358745 -0.040388227 0.08030202 0.053598464 -0.002879568 -0.08681713
-0.04541824 0.029829234 -0.007199435 -0.027729198 -0.004501758 -0.14585692 -0.08143615 0.032676022
0.039993882 -0.02683916 0.06032631 -0.011159232 0.010385797 0.085986294 -0.07802251 0.025245255
0.08079237 0.112913124 0.0816097 -0.05901893 0.06039454 0.06864962 0.045087613 -0.045563508
0.008442113 0.011192764 -0.0718033 -0.032588374 0.04539131 -0.0031680518 -0.04239699 0.034100346
-0.083422564 0.01118327 0.017824378 0.06313454 0.029628508 -0.025689544 -0.042582005 -0.07762391
00000000: 643b 273c 4ae7 8dbc 067f 9dbd 6308 8ebd
00000010: 5bfa c43b 210f 10bd 15dc aa3b fc66 b4bb
00000020: 0d23 c33c e24e 903d 2d80 9abc 4d06 9fbc
00000030: 7bf7 ae3d 9dd3 823d e3de 75bd 22cd b6bd
00000040: 561e e6bc 434d b03d ac66 8038 6eeb 2dbc
00000050: 7166 e23c 5d07 6c3d af79 7c3d 5029 c1bc
00000060: 59d1 83bd f34c 723d e391 4abc 1b9c a6bd
00000070: 3b03 c53a 59e5 24bc 3c4c e93c a396 833d
00000080: 9b25 913d 4da5 32bd e705 79bd d338 61bd
00000090: 9428 ebbc 53c8 8fbd e24e 5ebd 3fed 903b
000000a0: e5e7 893d 0b3c fcbc e091 47bc 9b18 babc
000000b0: 2c07 b53d 01a8 073d 78da 99bc 6ef5 9a3d
000000c0: ab1a 4a3d 59ed efbc 3618 5abc 57e7 023d
000000d0: 7f6e 92bc 4e65 1c3d 53bb 6a3d ad8d 84bc
000000e0: 5645 013c c77c b2bb 3c47 8a3a a19a 323d
000000f0: a7f1 bf3d becd 06bc b97c 3dbc 05a5 2bbc
00000100: 7c95 5f3c d253 5abd f2cc da3c fd25 163c
00000110: 2d3a 1e3d 767b c63c 5fa2 b13d 8c36 8a3d
00000120: 4b11 a73d a91a 1b3d a512 823d b64b 89bb
00000130: 5bb3 82bc 017e 72bc ea3a 723d c90d 983c
00000140: dacf b2bc d4f8 15bd ec56 5a3d f24b 90bd
00000150: cc11 1d3d 1b08 38bd 2356 02bd 426c 0a3d
00000160: c625 fe3c 1dc4 8a3d 58e3 d13d 9537 4fbc
00000170: 7a4e 013e e07f f2bc a905 bfbc 23be 8f3b
00000180: ff33 87bc 4458 b4bc b1bd 153d 303f 6abd
00000190: 3a8f b9bc 6436 c33a c609 8ebd ea5e 863b
000001a0: 72d0 973d 62f9 493c 89b4 333d 3430 13bb
000001b0: 8e37 fb3c 4a98 da3a 743c 1e3d 2630 55bd
000001c0: 5c64 343d 06d7 c53d 0f37 f33c 6b0d 8b3d
000001d0: de68 65bc 72b4 83bd 2a60 723c 7142 24bd
000001e0: 16f7 34bd 0c74 873d 8a9f c737 1bde 0abd
000001f0: 154f 0bbc 49aa 20bd 9713 813d 7fab 6e3c
00000200: 8fb9 c8ba 7104 4bbd b584 323c b563 3b3d
00000210: 558e 323d b588 ff3c ee28 353c bead 50b9
00000220: a022 083d 2872 ea3a 0715 69bd 96df 8a3d
00000230: 5009 f7bc 1d8c 8dbd 252a 0f3c 65b5 b1bb
00000240: 49b1 a7bd 72ab 973d 495d 48bd 4560 8f3d
00000250: 7da2 81bd 6ec6 42ba 0a24 593d ce21 74bc
00000260: 8e9a 82bc 7ec5 85bd 1195 853c dd75 6dbd
00000270: 9f01 f73d 9cd1 e7bd 7a49 85bd 8b77 273d
00000280: 918f 0a3d 2d62 5dbd a13f 383d 5e0a a7bd
00000290: 5ecd 05bd 5b72 0c3d 364b 853d 81af 8f3d
000002a0: 6344 473d cc7f caba fefd debc ede9 2dbd
000002b0: 949e b33d 6b1d 3e3b 97e5 2dbd a58e d5bc
000002c0: dfe1 77bc 2be0 2f3d e9e1 973c f03c 8cbd
000002d0: 04be 813d b264 a23d ab65 e0bc e654 033d
000002e0: 36fe e5bb 0e4b 943c 8041 b1bb be75 4a3d
000002f0: bf7f dbba f6f4 b1bd e12b a8bd afc9 d83c
00000300: 35c9 7c3c 7b16 b1bc dc43 013c 7ee1 a1bd
00000310: 9ab3 b33d 72ae 45bd de3e a8bd b423 2a3d
00000320: 2e56 593d 7c86 2e3d 4402 8c3d 9b10 05bb
00000330: 66dc d73d a0c8 21bd 7957 b83d a9c7 8fbd
00000340: fc1c 873d 94f3 043e 8c5d 52bd 206e 25bd
00000350: 6375 a43d 108a 5b3d 22b7 3cbb 2ecd b1bd
00000360: 7a08 3abd 705c f43c 3de9 ebbb 5828 e3bc
00000370: 7c83 93bb 845b 15be ffc7 a6bd 4bd7 053d
00000380: a0d0 233d ccdd dbbc b918 773d 36d5 36bc
00000390: 3129 2a3c 9519 b03d 44ca 9fbd 23cf ce3c
000003a0: 7876 a53d ff3e e73d fd22 a73d d5bd 71bd
000003b0: 4460 773d 2c98 8c3d caad 383d cda0 3abd
000003c0: ca50 0a3c db61 373c 9c0d 93bd 637b 05bd
000003d0: 3dec 393d 179f 4fbb 77a8 2dbd ceac 0b3d
000003e0: 73d9 aabd 093a 373c 6e04 923c af4c 813d
000003f0: 7cb7 f23c e172 d2bc 786a 2ebd 49f9 9ebd
